cpu-bind=MASK - rishon3, task  0  0 [12661]: mask 0x200000002 set
cpu-bind=MASK - rishon3, task  0  0 [12661]: mask 0x200000002 set
Will save checkpoints to data/film.pt
Reading features from data/train_features.h5
Reading questions from  data/train_questions.h5
Reading question data into memory
Reading features from data/val_features.h5
Reading questions from  data/val_questions.h5
Reading question data into memory
device count = 2
Here is the conditioning network:
DataParallel (
  (module): FiLMGen (
    (encoder_embed): Embedding(93, 200)
    (encoder_rnn): GRU(200, 4096, batch_first=True)
    (decoder_linear): Linear (4096 -> 2048)
  )
)
Here is the conditioned network:
FiLMedNet (
  (stem): Sequential (
    (0): Conv2d(1026, 128, kernel_size=(3, 3), stride=(1, 1), padding=(1, 1))
    (1): BatchNorm2d(128, eps=1e-05, momentum=0.1, affine=True)
    (2): ReLU (inplace)
  )
  (0): FiLMedResBlock (
    (input_proj): Conv2d(130, 128, kernel_size=(1, 1), stride=(1, 1))
    (conv1): Conv2d(128, 128, kernel_size=(3, 3), stride=(1, 1), padding=(1, 1))
    (bn1): BatchNorm2d(128, eps=1e-05, momentum=0.1, affine=False)
    (film): FiLM (
    )
    (cbn): CBN (
    )
  )
  (1): FiLMedResBlock (
    (input_proj): Conv2d(130, 128, kernel_size=(1, 1), stride=(1, 1))
    (conv1): Conv2d(128, 128, kernel_size=(3, 3), stride=(1, 1), padding=(1, 1))
    (bn1): BatchNorm2d(128, eps=1e-05, momentum=0.1, affine=False)
    (film): FiLM (
    )
    (cbn): CBN (
    )
  )
  (2): FiLMedResBlock (
    (input_proj): Conv2d(130, 128, kernel_size=(1, 1), stride=(1, 1))
    (conv1): Conv2d(128, 128, kernel_size=(3, 3), stride=(1, 1), padding=(1, 1))
    (bn1): BatchNorm2d(128, eps=1e-05, momentum=0.1, affine=False)
    (film): FiLM (
    )
    (cbn): CBN (
    )
  )
  (3): FiLMedResBlock (
    (input_proj): Conv2d(130, 128, kernel_size=(1, 1), stride=(1, 1))
    (conv1): Conv2d(128, 128, kernel_size=(3, 3), stride=(1, 1), padding=(1, 1))
    (bn1): BatchNorm2d(128, eps=1e-05, momentum=0.1, affine=False)
    (film): FiLM (
    )
    (cbn): CBN (
    )
  )
  (classifier): Sequential (
    (0): Conv2d(130, 512, kernel_size=(1, 1), stride=(1, 1))
    (1): BatchNorm2d(512, eps=1e-05, momentum=0.1, affine=True)
    (2): ReLU (inplace)
    (3): MaxPool2d (size=(14, 14), stride=(14, 14), dilation=(1, 1))
    (4): Flatten (
    )
    (5): Linear (512 -> 1024)
    (6): BatchNorm1d(1024, eps=1e-05, momentum=0.1, affine=True)
    (7): ReLU (inplace)
    (8): Linear (1024 -> 32)
  )
)
train_loader has 699989 samples
val_loader has 149991 samples
Starting epoch 1
100 1.6913964068889618
200 1.0954248470067978
300 1.0655715054273605
400 1.0560154169797897
500 1.0490751153230666
600 1.0277585256099702
700 1.021822807788849
800 1.0231272709369659
900 1.0120629620552064
1000 1.0232118904590606
…
